…
Namespace(lr=0.001, epochs=1000, batch_size=1024, num_workers=4, eval_step=16, learner='AdamW', lr_scheduler_type='constant', warmup_epochs=50, data_path='hex2vec-main/data/processed/Tokyo, Japan/9_new_grouped_normalized1_tfidf_all_time_info.feather', weight_decay=1e-05, dropout_prob=0.1, bn=True, loss_type='mse', kmeans_init=True, kmeans_iters=100, sk_epsilons=[0.01, 0.02, 0.05, 0.1, 0.1], sk_iters=100, device='cuda:0', num_emb_list=[256, 128, 64, 32, 16], e_dim=64, quant_loss_weight=1.5, beta=0.5, layers=[2048, 1024, 512, 256, 128, 64], save_limit=5, ckpt_dir='liandanlu/b0.5_q1.5_lr1e-3_d_emb_eps')
=================================================
RQVAE(
  (encoder): MLPLayers(
    (mlp_layers): Sequential(
      (0): Dropout(p=0.1, inplace=False)
      (1): Linear(in_features=220, out_features=2048, bias=True)
      (2): BatchNorm1d(2048, eps=1e-05, momentum=0.1, affine=True, track_running_stats=True)
      (3): ReLU()
      (4): Dropout(p=0.1, inplace=False)
      (5): Linear(in_features=2048, out_features=1024, bias=True)
      (6): BatchNorm1d(1024, eps=1e-05, momentum=0.1, affine=True, track_running_stats=True)
      (7): ReLU()
      (8): Dropout(p=0.1, inplace=False)
      (9): Linear(in_features=1024, out_features=512, bias=True)
      (10): BatchNorm1d(512, eps=1e-05, momentum=0.1, affine=True, track_running_stats=True)
      (11): ReLU()
      (12): Dropout(p=0.1, inplace=False)
      (13): Linear(in_features=512, out_features=256, bias=True)
      (14): BatchNorm1d(256, eps=1e-05, momentum=0.1, affine=True, track_running_stats=True)
      (15): ReLU()
      (16): Dropout(p=0.1, inplace=False)
      (17): Linear(in_features=256, out_features=128, bias=True)
      (18): BatchNorm1d(128, eps=1e-05, momentum=0.1, affine=True, track_running_stats=True)
      (19): ReLU()
      (20): Dropout(p=0.1, inplace=False)
      (21): Linear(in_features=128, out_features=64, bias=True)
      (22): BatchNorm1d(64, eps=1e-05, momentum=0.1, affine=True, track_running_stats=True)
      (23): ReLU()
      (24): Dropout(p=0.1, inplace=False)
      (25): Linear(in_features=64, out_features=64, bias=True)
    )
  )
  (rq): ResidualVectorQuantizer(
    (vq_layers): ModuleList(
      (0): VectorQuantizer(
        (embedding): Embedding(256, 64)
      )
      (1): VectorQuantizer(
        (embedding): Embedding(128, 64)
      )
      (2): VectorQuantizer(
        (embedding): Embedding(64, 64)
      )
      (3): VectorQuantizer(
        (embedding): Embedding(32, 64)
      )
      (4): VectorQuantizer(
        (embedding): Embedding(16, 64)
      )
    )
  )
  (decoder): MLPLayers(
    (mlp_layers): Sequential(
      (0): Dropout(p=0.1, inplace=False)
      (1): Linear(in_features=64, out_features=64, bias=True)
      (2): BatchNorm1d(64, eps=1e-05, momentum=0.1, affine=True, track_running_stats=True)
      (3): ReLU()
      (4): Dropout(p=0.1, inplace=False)
      (5): Linear(in_features=64, out_features=128, bias=True)
      (6): BatchNorm1d(128, eps=1e-05, momentum=0.1, affine=True, track_running_stats=True)
      (7): ReLU()
      (8): Dropout(p=0.1, inplace=False)
      (9): Linear(in_features=128, out_features=256, bias=True)
      (10): BatchNorm1d(256, eps=1e-05, momentum=0.1, affine=True, track_running_stats=True)
      (11): ReLU()
      (12): Dropout(p=0.1, inplace=False)
      (13): Linear(in_features=256, out_features=512, bias=True)
      (14): BatchNorm1d(512, eps=1e-05, momentum=0.1, affine=True, track_running_stats=True)
      (15): ReLU()
      (16): Dropout(p=0.1, inplace=False)
      (17): Linear(in_features=512, out_features=1024, bias=True)
      (18): BatchNorm1d(1024, eps=1e-05, momentum=0.1, affine=True, track_running_stats=True)
      (19): ReLU()
      (20): Dropout(p=0.1, inplace=False)
      (21): Linear(in_features=1024, out_features=2048, bias=True)
      (22): BatchNorm1d(2048, eps=1e-05, momentum=0.1, affine=True, track_running_stats=True)
      (23): ReLU()
      (24): Dropout(p=0.1, inplace=False)
      (25): Linear(in_features=2048, out_features=220, bias=True)
    )
  )
)
[1;35mTrain 0[0m:   0%|                                                                | 0/9 [00:00<?, ?it/s][0m[1;35mTrain 0[0m:  11%|â–ˆâ–ˆâ–ˆâ–ˆâ–ˆâ–ˆâ–                                                 | 1/9 [00:01<00:10,  1.36s/it][0m[1;35mTrain 0[0m:  44%|â–ˆâ–ˆâ–ˆâ–ˆâ–ˆâ–ˆâ–ˆâ–ˆâ–ˆâ–ˆâ–ˆâ–ˆâ–ˆâ–ˆâ–ˆâ–ˆâ–ˆâ–ˆâ–ˆâ–ˆâ–ˆâ–ˆâ–ˆâ
…
